Model
Model: "sequential_65"
________________________________________________________________________________
Layer (type)                        Output Shape                    Param #     
================================================================================
embedding_65 (Embedding)            (None, 26, 16)                  10480       
________________________________________________________________________________
flatten_65 (Flatten)                (None, 416)                     0           
________________________________________________________________________________
dense_317 (Dense)                   (None, 32)                      13344       
________________________________________________________________________________
dropout_180 (Dropout)               (None, 32)                      0           
________________________________________________________________________________
dense_318 (Dense)                   (None, 32)                      1056        
________________________________________________________________________________
dropout_181 (Dropout)               (None, 32)                      0           
________________________________________________________________________________
dense_319 (Dense)                   (None, 32)                      1056        
________________________________________________________________________________
dropout_182 (Dropout)               (None, 32)                      0           
________________________________________________________________________________
dense_320 (Dense)                   (None, 32)                      1056        
________________________________________________________________________________
dense_321 (Dense)                   (None, 1)                       33          
================================================================================
Total params: 27,025
Trainable params: 27,025
Non-trainable params: 0
________________________________________________________________________________


