Model
Model: "sequential_24"
________________________________________________________________________________
Layer (type)                        Output Shape                    Param #     
================================================================================
embedding_24 (Embedding)            (None, 26, 16)                  10480       
________________________________________________________________________________
flatten_24 (Flatten)                (None, 416)                     0           
________________________________________________________________________________
dense_112 (Dense)                   (None, 32)                      13344       
________________________________________________________________________________
dropout_57 (Dropout)                (None, 32)                      0           
________________________________________________________________________________
dense_113 (Dense)                   (None, 32)                      1056        
________________________________________________________________________________
dropout_58 (Dropout)                (None, 32)                      0           
________________________________________________________________________________
dense_114 (Dense)                   (None, 32)                      1056        
________________________________________________________________________________
dropout_59 (Dropout)                (None, 32)                      0           
________________________________________________________________________________
dense_115 (Dense)                   (None, 32)                      1056        
________________________________________________________________________________
dense_116 (Dense)                   (None, 1)                       33          
================================================================================
Total params: 27,025
Trainable params: 27,025
Non-trainable params: 0
________________________________________________________________________________


