Model
Model: "sequential_12"
________________________________________________________________________________
Layer (type)                        Output Shape                    Param #     
================================================================================
embedding_12 (Embedding)            (None, 26, 16)                  10480       
________________________________________________________________________________
flatten_12 (Flatten)                (None, 416)                     0           
________________________________________________________________________________
dense_52 (Dense)                    (None, 32)                      13344       
________________________________________________________________________________
dropout_21 (Dropout)                (None, 32)                      0           
________________________________________________________________________________
dense_53 (Dense)                    (None, 32)                      1056        
________________________________________________________________________________
dropout_22 (Dropout)                (None, 32)                      0           
________________________________________________________________________________
dense_54 (Dense)                    (None, 32)                      1056        
________________________________________________________________________________
dropout_23 (Dropout)                (None, 32)                      0           
________________________________________________________________________________
dense_55 (Dense)                    (None, 32)                      1056        
________________________________________________________________________________
dense_56 (Dense)                    (None, 1)                       33          
================================================================================
Total params: 27,025
Trainable params: 27,025
Non-trainable params: 0
________________________________________________________________________________


