Model
Model: "sequential_34"
________________________________________________________________________________
Layer (type)                        Output Shape                    Param #     
================================================================================
embedding_34 (Embedding)            (None, 26, 16)                  10480       
________________________________________________________________________________
flatten_34 (Flatten)                (None, 416)                     0           
________________________________________________________________________________
dense_162 (Dense)                   (None, 32)                      13344       
________________________________________________________________________________
dropout_87 (Dropout)                (None, 32)                      0           
________________________________________________________________________________
dense_163 (Dense)                   (None, 32)                      1056        
________________________________________________________________________________
dropout_88 (Dropout)                (None, 32)                      0           
________________________________________________________________________________
dense_164 (Dense)                   (None, 32)                      1056        
________________________________________________________________________________
dropout_89 (Dropout)                (None, 32)                      0           
________________________________________________________________________________
dense_165 (Dense)                   (None, 32)                      1056        
________________________________________________________________________________
dense_166 (Dense)                   (None, 1)                       33          
================================================================================
Total params: 27,025
Trainable params: 27,025
Non-trainable params: 0
________________________________________________________________________________


