Model
Model: "sequential_23"
________________________________________________________________________________
Layer (type)                        Output Shape                    Param #     
================================================================================
embedding_23 (Embedding)            (None, 26, 16)                  10480       
________________________________________________________________________________
flatten_23 (Flatten)                (None, 416)                     0           
________________________________________________________________________________
dense_107 (Dense)                   (None, 32)                      13344       
________________________________________________________________________________
dropout_54 (Dropout)                (None, 32)                      0           
________________________________________________________________________________
dense_108 (Dense)                   (None, 32)                      1056        
________________________________________________________________________________
dropout_55 (Dropout)                (None, 32)                      0           
________________________________________________________________________________
dense_109 (Dense)                   (None, 32)                      1056        
________________________________________________________________________________
dropout_56 (Dropout)                (None, 32)                      0           
________________________________________________________________________________
dense_110 (Dense)                   (None, 32)                      1056        
________________________________________________________________________________
dense_111 (Dense)                   (None, 1)                       33          
================================================================================
Total params: 27,025
Trainable params: 27,025
Non-trainable params: 0
________________________________________________________________________________


