Model
Model: "sequential_15"
________________________________________________________________________________
Layer (type)                        Output Shape                    Param #     
================================================================================
embedding_15 (Embedding)            (None, 26, 16)                  10480       
________________________________________________________________________________
flatten_15 (Flatten)                (None, 416)                     0           
________________________________________________________________________________
dense_67 (Dense)                    (None, 32)                      13344       
________________________________________________________________________________
dropout_30 (Dropout)                (None, 32)                      0           
________________________________________________________________________________
dense_68 (Dense)                    (None, 32)                      1056        
________________________________________________________________________________
dropout_31 (Dropout)                (None, 32)                      0           
________________________________________________________________________________
dense_69 (Dense)                    (None, 32)                      1056        
________________________________________________________________________________
dropout_32 (Dropout)                (None, 32)                      0           
________________________________________________________________________________
dense_70 (Dense)                    (None, 32)                      1056        
________________________________________________________________________________
dense_71 (Dense)                    (None, 1)                       33          
================================================================================
Total params: 27,025
Trainable params: 27,025
Non-trainable params: 0
________________________________________________________________________________


