Model
Model: "sequential_8"
________________________________________________________________________________
Layer (type)                        Output Shape                    Param #     
================================================================================
embedding_8 (Embedding)             (None, 26, 16)                  10480       
________________________________________________________________________________
flatten_8 (Flatten)                 (None, 416)                     0           
________________________________________________________________________________
dense_32 (Dense)                    (None, 32)                      13344       
________________________________________________________________________________
dropout_9 (Dropout)                 (None, 32)                      0           
________________________________________________________________________________
dense_33 (Dense)                    (None, 32)                      1056        
________________________________________________________________________________
dropout_10 (Dropout)                (None, 32)                      0           
________________________________________________________________________________
dense_34 (Dense)                    (None, 32)                      1056        
________________________________________________________________________________
dropout_11 (Dropout)                (None, 32)                      0           
________________________________________________________________________________
dense_35 (Dense)                    (None, 32)                      1056        
________________________________________________________________________________
dense_36 (Dense)                    (None, 1)                       33          
================================================================================
Total params: 27,025
Trainable params: 27,025
Non-trainable params: 0
________________________________________________________________________________


