Model
Model: "sequential_17"
________________________________________________________________________________
Layer (type)                        Output Shape                    Param #     
================================================================================
embedding_17 (Embedding)            (None, 26, 16)                  10480       
________________________________________________________________________________
flatten_17 (Flatten)                (None, 416)                     0           
________________________________________________________________________________
dense_77 (Dense)                    (None, 32)                      13344       
________________________________________________________________________________
dropout_36 (Dropout)                (None, 32)                      0           
________________________________________________________________________________
dense_78 (Dense)                    (None, 32)                      1056        
________________________________________________________________________________
dropout_37 (Dropout)                (None, 32)                      0           
________________________________________________________________________________
dense_79 (Dense)                    (None, 32)                      1056        
________________________________________________________________________________
dropout_38 (Dropout)                (None, 32)                      0           
________________________________________________________________________________
dense_80 (Dense)                    (None, 32)                      1056        
________________________________________________________________________________
dense_81 (Dense)                    (None, 1)                       33          
================================================================================
Total params: 27,025
Trainable params: 27,025
Non-trainable params: 0
________________________________________________________________________________


