Model
Model: "sequential_19"
________________________________________________________________________________
Layer (type)                        Output Shape                    Param #     
================================================================================
embedding_19 (Embedding)            (None, 26, 16)                  10480       
________________________________________________________________________________
flatten_19 (Flatten)                (None, 416)                     0           
________________________________________________________________________________
dense_87 (Dense)                    (None, 32)                      13344       
________________________________________________________________________________
dropout_42 (Dropout)                (None, 32)                      0           
________________________________________________________________________________
dense_88 (Dense)                    (None, 32)                      1056        
________________________________________________________________________________
dropout_43 (Dropout)                (None, 32)                      0           
________________________________________________________________________________
dense_89 (Dense)                    (None, 32)                      1056        
________________________________________________________________________________
dropout_44 (Dropout)                (None, 32)                      0           
________________________________________________________________________________
dense_90 (Dense)                    (None, 32)                      1056        
________________________________________________________________________________
dense_91 (Dense)                    (None, 1)                       33          
================================================================================
Total params: 27,025
Trainable params: 27,025
Non-trainable params: 0
________________________________________________________________________________


