Model
Model: "sequential_39"
________________________________________________________________________________
Layer (type)                        Output Shape                    Param #     
================================================================================
embedding_39 (Embedding)            (None, 26, 16)                  10480       
________________________________________________________________________________
flatten_39 (Flatten)                (None, 416)                     0           
________________________________________________________________________________
dense_187 (Dense)                   (None, 32)                      13344       
________________________________________________________________________________
dropout_102 (Dropout)               (None, 32)                      0           
________________________________________________________________________________
dense_188 (Dense)                   (None, 32)                      1056        
________________________________________________________________________________
dropout_103 (Dropout)               (None, 32)                      0           
________________________________________________________________________________
dense_189 (Dense)                   (None, 32)                      1056        
________________________________________________________________________________
dropout_104 (Dropout)               (None, 32)                      0           
________________________________________________________________________________
dense_190 (Dense)                   (None, 32)                      1056        
________________________________________________________________________________
dense_191 (Dense)                   (None, 1)                       33          
================================================================================
Total params: 27,025
Trainable params: 27,025
Non-trainable params: 0
________________________________________________________________________________


