Model
Model: "sequential_67"
________________________________________________________________________________
Layer (type)                        Output Shape                    Param #     
================================================================================
embedding_67 (Embedding)            (None, 26, 16)                  10480       
________________________________________________________________________________
flatten_67 (Flatten)                (None, 416)                     0           
________________________________________________________________________________
dense_327 (Dense)                   (None, 32)                      13344       
________________________________________________________________________________
dropout_186 (Dropout)               (None, 32)                      0           
________________________________________________________________________________
dense_328 (Dense)                   (None, 32)                      1056        
________________________________________________________________________________
dropout_187 (Dropout)               (None, 32)                      0           
________________________________________________________________________________
dense_329 (Dense)                   (None, 32)                      1056        
________________________________________________________________________________
dropout_188 (Dropout)               (None, 32)                      0           
________________________________________________________________________________
dense_330 (Dense)                   (None, 32)                      1056        
________________________________________________________________________________
dense_331 (Dense)                   (None, 1)                       33          
================================================================================
Total params: 27,025
Trainable params: 27,025
Non-trainable params: 0
________________________________________________________________________________


