Model
Model: "sequential_37"
________________________________________________________________________________
Layer (type)                        Output Shape                    Param #     
================================================================================
embedding_37 (Embedding)            (None, 26, 16)                  10480       
________________________________________________________________________________
flatten_37 (Flatten)                (None, 416)                     0           
________________________________________________________________________________
dense_177 (Dense)                   (None, 32)                      13344       
________________________________________________________________________________
dropout_96 (Dropout)                (None, 32)                      0           
________________________________________________________________________________
dense_178 (Dense)                   (None, 32)                      1056        
________________________________________________________________________________
dropout_97 (Dropout)                (None, 32)                      0           
________________________________________________________________________________
dense_179 (Dense)                   (None, 32)                      1056        
________________________________________________________________________________
dropout_98 (Dropout)                (None, 32)                      0           
________________________________________________________________________________
dense_180 (Dense)                   (None, 32)                      1056        
________________________________________________________________________________
dense_181 (Dense)                   (None, 1)                       33          
================================================================================
Total params: 27,025
Trainable params: 27,025
Non-trainable params: 0
________________________________________________________________________________


