Model
Model: "sequential_35"
________________________________________________________________________________
Layer (type)                        Output Shape                    Param #     
================================================================================
embedding_35 (Embedding)            (None, 26, 16)                  10480       
________________________________________________________________________________
flatten_35 (Flatten)                (None, 416)                     0           
________________________________________________________________________________
dense_167 (Dense)                   (None, 32)                      13344       
________________________________________________________________________________
dropout_90 (Dropout)                (None, 32)                      0           
________________________________________________________________________________
dense_168 (Dense)                   (None, 32)                      1056        
________________________________________________________________________________
dropout_91 (Dropout)                (None, 32)                      0           
________________________________________________________________________________
dense_169 (Dense)                   (None, 32)                      1056        
________________________________________________________________________________
dropout_92 (Dropout)                (None, 32)                      0           
________________________________________________________________________________
dense_170 (Dense)                   (None, 32)                      1056        
________________________________________________________________________________
dense_171 (Dense)                   (None, 1)                       33          
================================================================================
Total params: 27,025
Trainable params: 27,025
Non-trainable params: 0
________________________________________________________________________________


