Model
Model: "sequential_43"
________________________________________________________________________________
Layer (type)                        Output Shape                    Param #     
================================================================================
embedding_43 (Embedding)            (None, 26, 16)                  10480       
________________________________________________________________________________
flatten_43 (Flatten)                (None, 416)                     0           
________________________________________________________________________________
dense_207 (Dense)                   (None, 32)                      13344       
________________________________________________________________________________
dropout_114 (Dropout)               (None, 32)                      0           
________________________________________________________________________________
dense_208 (Dense)                   (None, 32)                      1056        
________________________________________________________________________________
dropout_115 (Dropout)               (None, 32)                      0           
________________________________________________________________________________
dense_209 (Dense)                   (None, 32)                      1056        
________________________________________________________________________________
dropout_116 (Dropout)               (None, 32)                      0           
________________________________________________________________________________
dense_210 (Dense)                   (None, 32)                      1056        
________________________________________________________________________________
dense_211 (Dense)                   (None, 1)                       33          
================================================================================
Total params: 27,025
Trainable params: 27,025
Non-trainable params: 0
________________________________________________________________________________


