Model
Model: "sequential_48"
________________________________________________________________________________
Layer (type)                        Output Shape                    Param #     
================================================================================
embedding_48 (Embedding)            (None, 26, 16)                  10480       
________________________________________________________________________________
flatten_48 (Flatten)                (None, 416)                     0           
________________________________________________________________________________
dense_232 (Dense)                   (None, 32)                      13344       
________________________________________________________________________________
dropout_129 (Dropout)               (None, 32)                      0           
________________________________________________________________________________
dense_233 (Dense)                   (None, 32)                      1056        
________________________________________________________________________________
dropout_130 (Dropout)               (None, 32)                      0           
________________________________________________________________________________
dense_234 (Dense)                   (None, 32)                      1056        
________________________________________________________________________________
dropout_131 (Dropout)               (None, 32)                      0           
________________________________________________________________________________
dense_235 (Dense)                   (None, 32)                      1056        
________________________________________________________________________________
dense_236 (Dense)                   (None, 1)                       33          
================================================================================
Total params: 27,025
Trainable params: 27,025
Non-trainable params: 0
________________________________________________________________________________


