Model
Model: "sequential_66"
________________________________________________________________________________
Layer (type)                        Output Shape                    Param #     
================================================================================
embedding_66 (Embedding)            (None, 26, 16)                  10480       
________________________________________________________________________________
flatten_66 (Flatten)                (None, 416)                     0           
________________________________________________________________________________
dense_322 (Dense)                   (None, 32)                      13344       
________________________________________________________________________________
dropout_183 (Dropout)               (None, 32)                      0           
________________________________________________________________________________
dense_323 (Dense)                   (None, 32)                      1056        
________________________________________________________________________________
dropout_184 (Dropout)               (None, 32)                      0           
________________________________________________________________________________
dense_324 (Dense)                   (None, 32)                      1056        
________________________________________________________________________________
dropout_185 (Dropout)               (None, 32)                      0           
________________________________________________________________________________
dense_325 (Dense)                   (None, 32)                      1056        
________________________________________________________________________________
dense_326 (Dense)                   (None, 1)                       33          
================================================================================
Total params: 27,025
Trainable params: 27,025
Non-trainable params: 0
________________________________________________________________________________


