Model
Model: "sequential_51"
________________________________________________________________________________
Layer (type)                        Output Shape                    Param #     
================================================================================
embedding_51 (Embedding)            (None, 26, 16)                  10480       
________________________________________________________________________________
flatten_51 (Flatten)                (None, 416)                     0           
________________________________________________________________________________
dense_247 (Dense)                   (None, 32)                      13344       
________________________________________________________________________________
dropout_138 (Dropout)               (None, 32)                      0           
________________________________________________________________________________
dense_248 (Dense)                   (None, 32)                      1056        
________________________________________________________________________________
dropout_139 (Dropout)               (None, 32)                      0           
________________________________________________________________________________
dense_249 (Dense)                   (None, 32)                      1056        
________________________________________________________________________________
dropout_140 (Dropout)               (None, 32)                      0           
________________________________________________________________________________
dense_250 (Dense)                   (None, 32)                      1056        
________________________________________________________________________________
dense_251 (Dense)                   (None, 1)                       33          
================================================================================
Total params: 27,025
Trainable params: 27,025
Non-trainable params: 0
________________________________________________________________________________


