Model
Model: "sequential_22"
________________________________________________________________________________
Layer (type)                        Output Shape                    Param #     
================================================================================
embedding_22 (Embedding)            (None, 26, 16)                  10480       
________________________________________________________________________________
flatten_22 (Flatten)                (None, 416)                     0           
________________________________________________________________________________
dense_102 (Dense)                   (None, 32)                      13344       
________________________________________________________________________________
dropout_51 (Dropout)                (None, 32)                      0           
________________________________________________________________________________
dense_103 (Dense)                   (None, 32)                      1056        
________________________________________________________________________________
dropout_52 (Dropout)                (None, 32)                      0           
________________________________________________________________________________
dense_104 (Dense)                   (None, 32)                      1056        
________________________________________________________________________________
dropout_53 (Dropout)                (None, 32)                      0           
________________________________________________________________________________
dense_105 (Dense)                   (None, 32)                      1056        
________________________________________________________________________________
dense_106 (Dense)                   (None, 1)                       33          
================================================================================
Total params: 27,025
Trainable params: 27,025
Non-trainable params: 0
________________________________________________________________________________


