Model
Model: "sequential_64"
________________________________________________________________________________
Layer (type)                        Output Shape                    Param #     
================================================================================
embedding_64 (Embedding)            (None, 26, 16)                  10480       
________________________________________________________________________________
flatten_64 (Flatten)                (None, 416)                     0           
________________________________________________________________________________
dense_312 (Dense)                   (None, 32)                      13344       
________________________________________________________________________________
dropout_177 (Dropout)               (None, 32)                      0           
________________________________________________________________________________
dense_313 (Dense)                   (None, 32)                      1056        
________________________________________________________________________________
dropout_178 (Dropout)               (None, 32)                      0           
________________________________________________________________________________
dense_314 (Dense)                   (None, 32)                      1056        
________________________________________________________________________________
dropout_179 (Dropout)               (None, 32)                      0           
________________________________________________________________________________
dense_315 (Dense)                   (None, 32)                      1056        
________________________________________________________________________________
dense_316 (Dense)                   (None, 1)                       33          
================================================================================
Total params: 27,025
Trainable params: 27,025
Non-trainable params: 0
________________________________________________________________________________


