Model
Model: "sequential_11"
________________________________________________________________________________
Layer (type)                        Output Shape                    Param #     
================================================================================
embedding_11 (Embedding)            (None, 26, 16)                  10480       
________________________________________________________________________________
flatten_11 (Flatten)                (None, 416)                     0           
________________________________________________________________________________
dense_47 (Dense)                    (None, 32)                      13344       
________________________________________________________________________________
dropout_18 (Dropout)                (None, 32)                      0           
________________________________________________________________________________
dense_48 (Dense)                    (None, 32)                      1056        
________________________________________________________________________________
dropout_19 (Dropout)                (None, 32)                      0           
________________________________________________________________________________
dense_49 (Dense)                    (None, 32)                      1056        
________________________________________________________________________________
dropout_20 (Dropout)                (None, 32)                      0           
________________________________________________________________________________
dense_50 (Dense)                    (None, 32)                      1056        
________________________________________________________________________________
dense_51 (Dense)                    (None, 1)                       33          
================================================================================
Total params: 27,025
Trainable params: 27,025
Non-trainable params: 0
________________________________________________________________________________


