Model
Model: "sequential_18"
________________________________________________________________________________
Layer (type)                        Output Shape                    Param #     
================================================================================
embedding_18 (Embedding)            (None, 26, 16)                  10480       
________________________________________________________________________________
flatten_18 (Flatten)                (None, 416)                     0           
________________________________________________________________________________
dense_82 (Dense)                    (None, 32)                      13344       
________________________________________________________________________________
dropout_39 (Dropout)                (None, 32)                      0           
________________________________________________________________________________
dense_83 (Dense)                    (None, 32)                      1056        
________________________________________________________________________________
dropout_40 (Dropout)                (None, 32)                      0           
________________________________________________________________________________
dense_84 (Dense)                    (None, 32)                      1056        
________________________________________________________________________________
dropout_41 (Dropout)                (None, 32)                      0           
________________________________________________________________________________
dense_85 (Dense)                    (None, 32)                      1056        
________________________________________________________________________________
dense_86 (Dense)                    (None, 1)                       33          
================================================================================
Total params: 27,025
Trainable params: 27,025
Non-trainable params: 0
________________________________________________________________________________


