Model
Model: "sequential_52"
________________________________________________________________________________
Layer (type)                        Output Shape                    Param #     
================================================================================
embedding_52 (Embedding)            (None, 26, 16)                  10480       
________________________________________________________________________________
flatten_52 (Flatten)                (None, 416)                     0           
________________________________________________________________________________
dense_252 (Dense)                   (None, 32)                      13344       
________________________________________________________________________________
dropout_141 (Dropout)               (None, 32)                      0           
________________________________________________________________________________
dense_253 (Dense)                   (None, 32)                      1056        
________________________________________________________________________________
dropout_142 (Dropout)               (None, 32)                      0           
________________________________________________________________________________
dense_254 (Dense)                   (None, 32)                      1056        
________________________________________________________________________________
dropout_143 (Dropout)               (None, 32)                      0           
________________________________________________________________________________
dense_255 (Dense)                   (None, 32)                      1056        
________________________________________________________________________________
dense_256 (Dense)                   (None, 1)                       33          
================================================================================
Total params: 27,025
Trainable params: 27,025
Non-trainable params: 0
________________________________________________________________________________


