Model
Model: "sequential_56"
________________________________________________________________________________
Layer (type)                        Output Shape                    Param #     
================================================================================
embedding_56 (Embedding)            (None, 26, 16)                  10480       
________________________________________________________________________________
flatten_56 (Flatten)                (None, 416)                     0           
________________________________________________________________________________
dense_272 (Dense)                   (None, 32)                      13344       
________________________________________________________________________________
dropout_153 (Dropout)               (None, 32)                      0           
________________________________________________________________________________
dense_273 (Dense)                   (None, 32)                      1056        
________________________________________________________________________________
dropout_154 (Dropout)               (None, 32)                      0           
________________________________________________________________________________
dense_274 (Dense)                   (None, 32)                      1056        
________________________________________________________________________________
dropout_155 (Dropout)               (None, 32)                      0           
________________________________________________________________________________
dense_275 (Dense)                   (None, 32)                      1056        
________________________________________________________________________________
dense_276 (Dense)                   (None, 1)                       33          
================================================================================
Total params: 27,025
Trainable params: 27,025
Non-trainable params: 0
________________________________________________________________________________


