Model
Model: "sequential_29"
________________________________________________________________________________
Layer (type)                        Output Shape                    Param #     
================================================================================
embedding_29 (Embedding)            (None, 26, 16)                  10480       
________________________________________________________________________________
flatten_29 (Flatten)                (None, 416)                     0           
________________________________________________________________________________
dense_137 (Dense)                   (None, 32)                      13344       
________________________________________________________________________________
dropout_72 (Dropout)                (None, 32)                      0           
________________________________________________________________________________
dense_138 (Dense)                   (None, 32)                      1056        
________________________________________________________________________________
dropout_73 (Dropout)                (None, 32)                      0           
________________________________________________________________________________
dense_139 (Dense)                   (None, 32)                      1056        
________________________________________________________________________________
dropout_74 (Dropout)                (None, 32)                      0           
________________________________________________________________________________
dense_140 (Dense)                   (None, 32)                      1056        
________________________________________________________________________________
dense_141 (Dense)                   (None, 1)                       33          
================================================================================
Total params: 27,025
Trainable params: 27,025
Non-trainable params: 0
________________________________________________________________________________


