Model
Model: "sequential_62"
________________________________________________________________________________
Layer (type)                        Output Shape                    Param #     
================================================================================
embedding_62 (Embedding)            (None, 26, 16)                  10480       
________________________________________________________________________________
flatten_62 (Flatten)                (None, 416)                     0           
________________________________________________________________________________
dense_302 (Dense)                   (None, 32)                      13344       
________________________________________________________________________________
dropout_171 (Dropout)               (None, 32)                      0           
________________________________________________________________________________
dense_303 (Dense)                   (None, 32)                      1056        
________________________________________________________________________________
dropout_172 (Dropout)               (None, 32)                      0           
________________________________________________________________________________
dense_304 (Dense)                   (None, 32)                      1056        
________________________________________________________________________________
dropout_173 (Dropout)               (None, 32)                      0           
________________________________________________________________________________
dense_305 (Dense)                   (None, 32)                      1056        
________________________________________________________________________________
dense_306 (Dense)                   (None, 1)                       33          
================================================================================
Total params: 27,025
Trainable params: 27,025
Non-trainable params: 0
________________________________________________________________________________


