Model
Model: "sequential_27"
________________________________________________________________________________
Layer (type)                        Output Shape                    Param #     
================================================================================
embedding_27 (Embedding)            (None, 26, 16)                  10480       
________________________________________________________________________________
flatten_27 (Flatten)                (None, 416)                     0           
________________________________________________________________________________
dense_127 (Dense)                   (None, 32)                      13344       
________________________________________________________________________________
dropout_66 (Dropout)                (None, 32)                      0           
________________________________________________________________________________
dense_128 (Dense)                   (None, 32)                      1056        
________________________________________________________________________________
dropout_67 (Dropout)                (None, 32)                      0           
________________________________________________________________________________
dense_129 (Dense)                   (None, 32)                      1056        
________________________________________________________________________________
dropout_68 (Dropout)                (None, 32)                      0           
________________________________________________________________________________
dense_130 (Dense)                   (None, 32)                      1056        
________________________________________________________________________________
dense_131 (Dense)                   (None, 1)                       33          
================================================================================
Total params: 27,025
Trainable params: 27,025
Non-trainable params: 0
________________________________________________________________________________


