Model
Model: "sequential_5"
________________________________________________________________________________
Layer (type)                        Output Shape                    Param #     
================================================================================
embedding_5 (Embedding)             (None, 26, 16)                  10480       
________________________________________________________________________________
flatten_5 (Flatten)                 (None, 416)                     0           
________________________________________________________________________________
dense_17 (Dense)                    (None, 32)                      13344       
________________________________________________________________________________
dropout (Dropout)                   (None, 32)                      0           
________________________________________________________________________________
dense_18 (Dense)                    (None, 32)                      1056        
________________________________________________________________________________
dropout_1 (Dropout)                 (None, 32)                      0           
________________________________________________________________________________
dense_19 (Dense)                    (None, 32)                      1056        
________________________________________________________________________________
dropout_2 (Dropout)                 (None, 32)                      0           
________________________________________________________________________________
dense_20 (Dense)                    (None, 32)                      1056        
________________________________________________________________________________
dense_21 (Dense)                    (None, 1)                       33          
================================================================================
Total params: 27,025
Trainable params: 27,025
Non-trainable params: 0
________________________________________________________________________________


