Model
Model: "sequential_55"
________________________________________________________________________________
Layer (type)                        Output Shape                    Param #     
================================================================================
embedding_55 (Embedding)            (None, 26, 16)                  10480       
________________________________________________________________________________
flatten_55 (Flatten)                (None, 416)                     0           
________________________________________________________________________________
dense_267 (Dense)                   (None, 32)                      13344       
________________________________________________________________________________
dropout_150 (Dropout)               (None, 32)                      0           
________________________________________________________________________________
dense_268 (Dense)                   (None, 32)                      1056        
________________________________________________________________________________
dropout_151 (Dropout)               (None, 32)                      0           
________________________________________________________________________________
dense_269 (Dense)                   (None, 32)                      1056        
________________________________________________________________________________
dropout_152 (Dropout)               (None, 32)                      0           
________________________________________________________________________________
dense_270 (Dense)                   (None, 32)                      1056        
________________________________________________________________________________
dense_271 (Dense)                   (None, 1)                       33          
================================================================================
Total params: 27,025
Trainable params: 27,025
Non-trainable params: 0
________________________________________________________________________________


