Model
Model: "sequential_60"
________________________________________________________________________________
Layer (type)                        Output Shape                    Param #     
================================================================================
embedding_60 (Embedding)            (None, 26, 16)                  10480       
________________________________________________________________________________
flatten_60 (Flatten)                (None, 416)                     0           
________________________________________________________________________________
dense_292 (Dense)                   (None, 32)                      13344       
________________________________________________________________________________
dropout_165 (Dropout)               (None, 32)                      0           
________________________________________________________________________________
dense_293 (Dense)                   (None, 32)                      1056        
________________________________________________________________________________
dropout_166 (Dropout)               (None, 32)                      0           
________________________________________________________________________________
dense_294 (Dense)                   (None, 32)                      1056        
________________________________________________________________________________
dropout_167 (Dropout)               (None, 32)                      0           
________________________________________________________________________________
dense_295 (Dense)                   (None, 32)                      1056        
________________________________________________________________________________
dense_296 (Dense)                   (None, 1)                       33          
================================================================================
Total params: 27,025
Trainable params: 27,025
Non-trainable params: 0
________________________________________________________________________________


