Model
Model: "sequential_31"
________________________________________________________________________________
Layer (type)                        Output Shape                    Param #     
================================================================================
embedding_31 (Embedding)            (None, 26, 16)                  10480       
________________________________________________________________________________
flatten_31 (Flatten)                (None, 416)                     0           
________________________________________________________________________________
dense_147 (Dense)                   (None, 32)                      13344       
________________________________________________________________________________
dropout_78 (Dropout)                (None, 32)                      0           
________________________________________________________________________________
dense_148 (Dense)                   (None, 32)                      1056        
________________________________________________________________________________
dropout_79 (Dropout)                (None, 32)                      0           
________________________________________________________________________________
dense_149 (Dense)                   (None, 32)                      1056        
________________________________________________________________________________
dropout_80 (Dropout)                (None, 32)                      0           
________________________________________________________________________________
dense_150 (Dense)                   (None, 32)                      1056        
________________________________________________________________________________
dense_151 (Dense)                   (None, 1)                       33          
================================================================================
Total params: 27,025
Trainable params: 27,025
Non-trainable params: 0
________________________________________________________________________________


