Model
Model: "sequential_28"
________________________________________________________________________________
Layer (type)                        Output Shape                    Param #     
================================================================================
embedding_28 (Embedding)            (None, 26, 16)                  10480       
________________________________________________________________________________
flatten_28 (Flatten)                (None, 416)                     0           
________________________________________________________________________________
dense_132 (Dense)                   (None, 32)                      13344       
________________________________________________________________________________
dropout_69 (Dropout)                (None, 32)                      0           
________________________________________________________________________________
dense_133 (Dense)                   (None, 32)                      1056        
________________________________________________________________________________
dropout_70 (Dropout)                (None, 32)                      0           
________________________________________________________________________________
dense_134 (Dense)                   (None, 32)                      1056        
________________________________________________________________________________
dropout_71 (Dropout)                (None, 32)                      0           
________________________________________________________________________________
dense_135 (Dense)                   (None, 32)                      1056        
________________________________________________________________________________
dense_136 (Dense)                   (None, 1)                       33          
================================================================================
Total params: 27,025
Trainable params: 27,025
Non-trainable params: 0
________________________________________________________________________________


