Model
Model: "sequential_45"
________________________________________________________________________________
Layer (type)                        Output Shape                    Param #     
================================================================================
embedding_45 (Embedding)            (None, 26, 16)                  10480       
________________________________________________________________________________
flatten_45 (Flatten)                (None, 416)                     0           
________________________________________________________________________________
dense_217 (Dense)                   (None, 32)                      13344       
________________________________________________________________________________
dropout_120 (Dropout)               (None, 32)                      0           
________________________________________________________________________________
dense_218 (Dense)                   (None, 32)                      1056        
________________________________________________________________________________
dropout_121 (Dropout)               (None, 32)                      0           
________________________________________________________________________________
dense_219 (Dense)                   (None, 32)                      1056        
________________________________________________________________________________
dropout_122 (Dropout)               (None, 32)                      0           
________________________________________________________________________________
dense_220 (Dense)                   (None, 32)                      1056        
________________________________________________________________________________
dense_221 (Dense)                   (None, 1)                       33          
================================================================================
Total params: 27,025
Trainable params: 27,025
Non-trainable params: 0
________________________________________________________________________________


