Model
Model: "sequential_47"
________________________________________________________________________________
Layer (type)                        Output Shape                    Param #     
================================================================================
embedding_47 (Embedding)            (None, 26, 16)                  10480       
________________________________________________________________________________
flatten_47 (Flatten)                (None, 416)                     0           
________________________________________________________________________________
dense_227 (Dense)                   (None, 32)                      13344       
________________________________________________________________________________
dropout_126 (Dropout)               (None, 32)                      0           
________________________________________________________________________________
dense_228 (Dense)                   (None, 32)                      1056        
________________________________________________________________________________
dropout_127 (Dropout)               (None, 32)                      0           
________________________________________________________________________________
dense_229 (Dense)                   (None, 32)                      1056        
________________________________________________________________________________
dropout_128 (Dropout)               (None, 32)                      0           
________________________________________________________________________________
dense_230 (Dense)                   (None, 32)                      1056        
________________________________________________________________________________
dense_231 (Dense)                   (None, 1)                       33          
================================================================================
Total params: 27,025
Trainable params: 27,025
Non-trainable params: 0
________________________________________________________________________________


