Model
Model: "sequential_50"
________________________________________________________________________________
Layer (type)                        Output Shape                    Param #     
================================================================================
embedding_50 (Embedding)            (None, 26, 16)                  10480       
________________________________________________________________________________
flatten_50 (Flatten)                (None, 416)                     0           
________________________________________________________________________________
dense_242 (Dense)                   (None, 32)                      13344       
________________________________________________________________________________
dropout_135 (Dropout)               (None, 32)                      0           
________________________________________________________________________________
dense_243 (Dense)                   (None, 32)                      1056        
________________________________________________________________________________
dropout_136 (Dropout)               (None, 32)                      0           
________________________________________________________________________________
dense_244 (Dense)                   (None, 32)                      1056        
________________________________________________________________________________
dropout_137 (Dropout)               (None, 32)                      0           
________________________________________________________________________________
dense_245 (Dense)                   (None, 32)                      1056        
________________________________________________________________________________
dense_246 (Dense)                   (None, 1)                       33          
================================================================================
Total params: 27,025
Trainable params: 27,025
Non-trainable params: 0
________________________________________________________________________________


