Model
Model: "sequential_46"
________________________________________________________________________________
Layer (type)                        Output Shape                    Param #     
================================================================================
embedding_46 (Embedding)            (None, 26, 16)                  10480       
________________________________________________________________________________
flatten_46 (Flatten)                (None, 416)                     0           
________________________________________________________________________________
dense_222 (Dense)                   (None, 32)                      13344       
________________________________________________________________________________
dropout_123 (Dropout)               (None, 32)                      0           
________________________________________________________________________________
dense_223 (Dense)                   (None, 32)                      1056        
________________________________________________________________________________
dropout_124 (Dropout)               (None, 32)                      0           
________________________________________________________________________________
dense_224 (Dense)                   (None, 32)                      1056        
________________________________________________________________________________
dropout_125 (Dropout)               (None, 32)                      0           
________________________________________________________________________________
dense_225 (Dense)                   (None, 32)                      1056        
________________________________________________________________________________
dense_226 (Dense)                   (None, 1)                       33          
================================================================================
Total params: 27,025
Trainable params: 27,025
Non-trainable params: 0
________________________________________________________________________________


