Model
Model: "sequential_26"
________________________________________________________________________________
Layer (type)                        Output Shape                    Param #     
================================================================================
embedding_26 (Embedding)            (None, 26, 16)                  10480       
________________________________________________________________________________
flatten_26 (Flatten)                (None, 416)                     0           
________________________________________________________________________________
dense_122 (Dense)                   (None, 32)                      13344       
________________________________________________________________________________
dropout_63 (Dropout)                (None, 32)                      0           
________________________________________________________________________________
dense_123 (Dense)                   (None, 32)                      1056        
________________________________________________________________________________
dropout_64 (Dropout)                (None, 32)                      0           
________________________________________________________________________________
dense_124 (Dense)                   (None, 32)                      1056        
________________________________________________________________________________
dropout_65 (Dropout)                (None, 32)                      0           
________________________________________________________________________________
dense_125 (Dense)                   (None, 32)                      1056        
________________________________________________________________________________
dense_126 (Dense)                   (None, 1)                       33          
================================================================================
Total params: 27,025
Trainable params: 27,025
Non-trainable params: 0
________________________________________________________________________________


