Model
Model: "sequential_58"
________________________________________________________________________________
Layer (type)                        Output Shape                    Param #     
================================================================================
embedding_58 (Embedding)            (None, 26, 16)                  10480       
________________________________________________________________________________
flatten_58 (Flatten)                (None, 416)                     0           
________________________________________________________________________________
dense_282 (Dense)                   (None, 32)                      13344       
________________________________________________________________________________
dropout_159 (Dropout)               (None, 32)                      0           
________________________________________________________________________________
dense_283 (Dense)                   (None, 32)                      1056        
________________________________________________________________________________
dropout_160 (Dropout)               (None, 32)                      0           
________________________________________________________________________________
dense_284 (Dense)                   (None, 32)                      1056        
________________________________________________________________________________
dropout_161 (Dropout)               (None, 32)                      0           
________________________________________________________________________________
dense_285 (Dense)                   (None, 32)                      1056        
________________________________________________________________________________
dense_286 (Dense)                   (None, 1)                       33          
================================================================================
Total params: 27,025
Trainable params: 27,025
Non-trainable params: 0
________________________________________________________________________________


