Model
Model: "sequential_7"
________________________________________________________________________________
Layer (type)                        Output Shape                    Param #     
================================================================================
embedding_7 (Embedding)             (None, 26, 16)                  10480       
________________________________________________________________________________
flatten_7 (Flatten)                 (None, 416)                     0           
________________________________________________________________________________
dense_27 (Dense)                    (None, 32)                      13344       
________________________________________________________________________________
dropout_6 (Dropout)                 (None, 32)                      0           
________________________________________________________________________________
dense_28 (Dense)                    (None, 32)                      1056        
________________________________________________________________________________
dropout_7 (Dropout)                 (None, 32)                      0           
________________________________________________________________________________
dense_29 (Dense)                    (None, 32)                      1056        
________________________________________________________________________________
dropout_8 (Dropout)                 (None, 32)                      0           
________________________________________________________________________________
dense_30 (Dense)                    (None, 32)                      1056        
________________________________________________________________________________
dense_31 (Dense)                    (None, 1)                       33          
================================================================================
Total params: 27,025
Trainable params: 27,025
Non-trainable params: 0
________________________________________________________________________________


