Model
Model: "sequential_59"
________________________________________________________________________________
Layer (type)                        Output Shape                    Param #     
================================================================================
embedding_59 (Embedding)            (None, 26, 16)                  10480       
________________________________________________________________________________
flatten_59 (Flatten)                (None, 416)                     0           
________________________________________________________________________________
dense_287 (Dense)                   (None, 32)                      13344       
________________________________________________________________________________
dropout_162 (Dropout)               (None, 32)                      0           
________________________________________________________________________________
dense_288 (Dense)                   (None, 32)                      1056        
________________________________________________________________________________
dropout_163 (Dropout)               (None, 32)                      0           
________________________________________________________________________________
dense_289 (Dense)                   (None, 32)                      1056        
________________________________________________________________________________
dropout_164 (Dropout)               (None, 32)                      0           
________________________________________________________________________________
dense_290 (Dense)                   (None, 32)                      1056        
________________________________________________________________________________
dense_291 (Dense)                   (None, 1)                       33          
================================================================================
Total params: 27,025
Trainable params: 27,025
Non-trainable params: 0
________________________________________________________________________________


