Model
Model: "sequential_33"
________________________________________________________________________________
Layer (type)                        Output Shape                    Param #     
================================================================================
embedding_33 (Embedding)            (None, 26, 16)                  10480       
________________________________________________________________________________
flatten_33 (Flatten)                (None, 416)                     0           
________________________________________________________________________________
dense_157 (Dense)                   (None, 32)                      13344       
________________________________________________________________________________
dropout_84 (Dropout)                (None, 32)                      0           
________________________________________________________________________________
dense_158 (Dense)                   (None, 32)                      1056        
________________________________________________________________________________
dropout_85 (Dropout)                (None, 32)                      0           
________________________________________________________________________________
dense_159 (Dense)                   (None, 32)                      1056        
________________________________________________________________________________
dropout_86 (Dropout)                (None, 32)                      0           
________________________________________________________________________________
dense_160 (Dense)                   (None, 32)                      1056        
________________________________________________________________________________
dense_161 (Dense)                   (None, 1)                       33          
================================================================================
Total params: 27,025
Trainable params: 27,025
Non-trainable params: 0
________________________________________________________________________________


