Model
Model: "sequential_16"
________________________________________________________________________________
Layer (type)                        Output Shape                    Param #     
================================================================================
embedding_16 (Embedding)            (None, 26, 16)                  10480       
________________________________________________________________________________
flatten_16 (Flatten)                (None, 416)                     0           
________________________________________________________________________________
dense_72 (Dense)                    (None, 32)                      13344       
________________________________________________________________________________
dropout_33 (Dropout)                (None, 32)                      0           
________________________________________________________________________________
dense_73 (Dense)                    (None, 32)                      1056        
________________________________________________________________________________
dropout_34 (Dropout)                (None, 32)                      0           
________________________________________________________________________________
dense_74 (Dense)                    (None, 32)                      1056        
________________________________________________________________________________
dropout_35 (Dropout)                (None, 32)                      0           
________________________________________________________________________________
dense_75 (Dense)                    (None, 32)                      1056        
________________________________________________________________________________
dense_76 (Dense)                    (None, 1)                       33          
================================================================================
Total params: 27,025
Trainable params: 27,025
Non-trainable params: 0
________________________________________________________________________________


