Model
Model: "sequential_10"
________________________________________________________________________________
Layer (type)                        Output Shape                    Param #     
================================================================================
embedding_10 (Embedding)            (None, 26, 16)                  10480       
________________________________________________________________________________
flatten_10 (Flatten)                (None, 416)                     0           
________________________________________________________________________________
dense_42 (Dense)                    (None, 32)                      13344       
________________________________________________________________________________
dropout_15 (Dropout)                (None, 32)                      0           
________________________________________________________________________________
dense_43 (Dense)                    (None, 32)                      1056        
________________________________________________________________________________
dropout_16 (Dropout)                (None, 32)                      0           
________________________________________________________________________________
dense_44 (Dense)                    (None, 32)                      1056        
________________________________________________________________________________
dropout_17 (Dropout)                (None, 32)                      0           
________________________________________________________________________________
dense_45 (Dense)                    (None, 32)                      1056        
________________________________________________________________________________
dense_46 (Dense)                    (None, 1)                       33          
================================================================================
Total params: 27,025
Trainable params: 27,025
Non-trainable params: 0
________________________________________________________________________________


