Model
Model: "sequential_13"
________________________________________________________________________________
Layer (type)                        Output Shape                    Param #     
================================================================================
embedding_13 (Embedding)            (None, 26, 16)                  10480       
________________________________________________________________________________
flatten_13 (Flatten)                (None, 416)                     0           
________________________________________________________________________________
dense_57 (Dense)                    (None, 32)                      13344       
________________________________________________________________________________
dropout_24 (Dropout)                (None, 32)                      0           
________________________________________________________________________________
dense_58 (Dense)                    (None, 32)                      1056        
________________________________________________________________________________
dropout_25 (Dropout)                (None, 32)                      0           
________________________________________________________________________________
dense_59 (Dense)                    (None, 32)                      1056        
________________________________________________________________________________
dropout_26 (Dropout)                (None, 32)                      0           
________________________________________________________________________________
dense_60 (Dense)                    (None, 32)                      1056        
________________________________________________________________________________
dense_61 (Dense)                    (None, 1)                       33          
================================================================================
Total params: 27,025
Trainable params: 27,025
Non-trainable params: 0
________________________________________________________________________________


