Model
Model: "sequential_9"
________________________________________________________________________________
Layer (type)                        Output Shape                    Param #     
================================================================================
embedding_9 (Embedding)             (None, 26, 16)                  10480       
________________________________________________________________________________
flatten_9 (Flatten)                 (None, 416)                     0           
________________________________________________________________________________
dense_37 (Dense)                    (None, 32)                      13344       
________________________________________________________________________________
dropout_12 (Dropout)                (None, 32)                      0           
________________________________________________________________________________
dense_38 (Dense)                    (None, 32)                      1056        
________________________________________________________________________________
dropout_13 (Dropout)                (None, 32)                      0           
________________________________________________________________________________
dense_39 (Dense)                    (None, 32)                      1056        
________________________________________________________________________________
dropout_14 (Dropout)                (None, 32)                      0           
________________________________________________________________________________
dense_40 (Dense)                    (None, 32)                      1056        
________________________________________________________________________________
dense_41 (Dense)                    (None, 1)                       33          
================================================================================
Total params: 27,025
Trainable params: 27,025
Non-trainable params: 0
________________________________________________________________________________


