Model
Model: "sequential_53"
________________________________________________________________________________
Layer (type)                        Output Shape                    Param #     
================================================================================
embedding_53 (Embedding)            (None, 26, 16)                  10480       
________________________________________________________________________________
flatten_53 (Flatten)                (None, 416)                     0           
________________________________________________________________________________
dense_257 (Dense)                   (None, 32)                      13344       
________________________________________________________________________________
dropout_144 (Dropout)               (None, 32)                      0           
________________________________________________________________________________
dense_258 (Dense)                   (None, 32)                      1056        
________________________________________________________________________________
dropout_145 (Dropout)               (None, 32)                      0           
________________________________________________________________________________
dense_259 (Dense)                   (None, 32)                      1056        
________________________________________________________________________________
dropout_146 (Dropout)               (None, 32)                      0           
________________________________________________________________________________
dense_260 (Dense)                   (None, 32)                      1056        
________________________________________________________________________________
dense_261 (Dense)                   (None, 1)                       33          
================================================================================
Total params: 27,025
Trainable params: 27,025
Non-trainable params: 0
________________________________________________________________________________


