Model
Model: "sequential_32"
________________________________________________________________________________
Layer (type)                        Output Shape                    Param #     
================================================================================
embedding_32 (Embedding)            (None, 26, 16)                  10480       
________________________________________________________________________________
flatten_32 (Flatten)                (None, 416)                     0           
________________________________________________________________________________
dense_152 (Dense)                   (None, 32)                      13344       
________________________________________________________________________________
dropout_81 (Dropout)                (None, 32)                      0           
________________________________________________________________________________
dense_153 (Dense)                   (None, 32)                      1056        
________________________________________________________________________________
dropout_82 (Dropout)                (None, 32)                      0           
________________________________________________________________________________
dense_154 (Dense)                   (None, 32)                      1056        
________________________________________________________________________________
dropout_83 (Dropout)                (None, 32)                      0           
________________________________________________________________________________
dense_155 (Dense)                   (None, 32)                      1056        
________________________________________________________________________________
dense_156 (Dense)                   (None, 1)                       33          
================================================================================
Total params: 27,025
Trainable params: 27,025
Non-trainable params: 0
________________________________________________________________________________


