Model
Model: "sequential_14"
________________________________________________________________________________
Layer (type)                        Output Shape                    Param #     
================================================================================
embedding_14 (Embedding)            (None, 26, 16)                  10480       
________________________________________________________________________________
flatten_14 (Flatten)                (None, 416)                     0           
________________________________________________________________________________
dense_62 (Dense)                    (None, 32)                      13344       
________________________________________________________________________________
dropout_27 (Dropout)                (None, 32)                      0           
________________________________________________________________________________
dense_63 (Dense)                    (None, 32)                      1056        
________________________________________________________________________________
dropout_28 (Dropout)                (None, 32)                      0           
________________________________________________________________________________
dense_64 (Dense)                    (None, 32)                      1056        
________________________________________________________________________________
dropout_29 (Dropout)                (None, 32)                      0           
________________________________________________________________________________
dense_65 (Dense)                    (None, 32)                      1056        
________________________________________________________________________________
dense_66 (Dense)                    (None, 1)                       33          
================================================================================
Total params: 27,025
Trainable params: 27,025
Non-trainable params: 0
________________________________________________________________________________


