Model
Model: "sequential_38"
________________________________________________________________________________
Layer (type)                        Output Shape                    Param #     
================================================================================
embedding_38 (Embedding)            (None, 26, 16)                  10480       
________________________________________________________________________________
flatten_38 (Flatten)                (None, 416)                     0           
________________________________________________________________________________
dense_182 (Dense)                   (None, 32)                      13344       
________________________________________________________________________________
dropout_99 (Dropout)                (None, 32)                      0           
________________________________________________________________________________
dense_183 (Dense)                   (None, 32)                      1056        
________________________________________________________________________________
dropout_100 (Dropout)               (None, 32)                      0           
________________________________________________________________________________
dense_184 (Dense)                   (None, 32)                      1056        
________________________________________________________________________________
dropout_101 (Dropout)               (None, 32)                      0           
________________________________________________________________________________
dense_185 (Dense)                   (None, 32)                      1056        
________________________________________________________________________________
dense_186 (Dense)                   (None, 1)                       33          
================================================================================
Total params: 27,025
Trainable params: 27,025
Non-trainable params: 0
________________________________________________________________________________


