Model
Model: "sequential_40"
________________________________________________________________________________
Layer (type)                        Output Shape                    Param #     
================================================================================
embedding_40 (Embedding)            (None, 26, 16)                  10480       
________________________________________________________________________________
flatten_40 (Flatten)                (None, 416)                     0           
________________________________________________________________________________
dense_192 (Dense)                   (None, 32)                      13344       
________________________________________________________________________________
dropout_105 (Dropout)               (None, 32)                      0           
________________________________________________________________________________
dense_193 (Dense)                   (None, 32)                      1056        
________________________________________________________________________________
dropout_106 (Dropout)               (None, 32)                      0           
________________________________________________________________________________
dense_194 (Dense)                   (None, 32)                      1056        
________________________________________________________________________________
dropout_107 (Dropout)               (None, 32)                      0           
________________________________________________________________________________
dense_195 (Dense)                   (None, 32)                      1056        
________________________________________________________________________________
dense_196 (Dense)                   (None, 1)                       33          
================================================================================
Total params: 27,025
Trainable params: 27,025
Non-trainable params: 0
________________________________________________________________________________


