Model
Model: "sequential_42"
________________________________________________________________________________
Layer (type)                        Output Shape                    Param #     
================================================================================
embedding_42 (Embedding)            (None, 26, 16)                  10480       
________________________________________________________________________________
flatten_42 (Flatten)                (None, 416)                     0           
________________________________________________________________________________
dense_202 (Dense)                   (None, 32)                      13344       
________________________________________________________________________________
dropout_111 (Dropout)               (None, 32)                      0           
________________________________________________________________________________
dense_203 (Dense)                   (None, 32)                      1056        
________________________________________________________________________________
dropout_112 (Dropout)               (None, 32)                      0           
________________________________________________________________________________
dense_204 (Dense)                   (None, 32)                      1056        
________________________________________________________________________________
dropout_113 (Dropout)               (None, 32)                      0           
________________________________________________________________________________
dense_205 (Dense)                   (None, 32)                      1056        
________________________________________________________________________________
dense_206 (Dense)                   (None, 1)                       33          
================================================================================
Total params: 27,025
Trainable params: 27,025
Non-trainable params: 0
________________________________________________________________________________


