Model
Model: "sequential_6"
________________________________________________________________________________
Layer (type)                        Output Shape                    Param #     
================================================================================
embedding_6 (Embedding)             (None, 26, 16)                  10480       
________________________________________________________________________________
flatten_6 (Flatten)                 (None, 416)                     0           
________________________________________________________________________________
dense_22 (Dense)                    (None, 32)                      13344       
________________________________________________________________________________
dropout_3 (Dropout)                 (None, 32)                      0           
________________________________________________________________________________
dense_23 (Dense)                    (None, 32)                      1056        
________________________________________________________________________________
dropout_4 (Dropout)                 (None, 32)                      0           
________________________________________________________________________________
dense_24 (Dense)                    (None, 32)                      1056        
________________________________________________________________________________
dropout_5 (Dropout)                 (None, 32)                      0           
________________________________________________________________________________
dense_25 (Dense)                    (None, 32)                      1056        
________________________________________________________________________________
dense_26 (Dense)                    (None, 1)                       33          
================================================================================
Total params: 27,025
Trainable params: 27,025
Non-trainable params: 0
________________________________________________________________________________


