Model
Model: "sequential_44"
________________________________________________________________________________
Layer (type)                        Output Shape                    Param #     
================================================================================
embedding_44 (Embedding)            (None, 26, 16)                  10480       
________________________________________________________________________________
flatten_44 (Flatten)                (None, 416)                     0           
________________________________________________________________________________
dense_212 (Dense)                   (None, 32)                      13344       
________________________________________________________________________________
dropout_117 (Dropout)               (None, 32)                      0           
________________________________________________________________________________
dense_213 (Dense)                   (None, 32)                      1056        
________________________________________________________________________________
dropout_118 (Dropout)               (None, 32)                      0           
________________________________________________________________________________
dense_214 (Dense)                   (None, 32)                      1056        
________________________________________________________________________________
dropout_119 (Dropout)               (None, 32)                      0           
________________________________________________________________________________
dense_215 (Dense)                   (None, 32)                      1056        
________________________________________________________________________________
dense_216 (Dense)                   (None, 1)                       33          
================================================================================
Total params: 27,025
Trainable params: 27,025
Non-trainable params: 0
________________________________________________________________________________


