Model
Model: "sequential_25"
________________________________________________________________________________
Layer (type)                        Output Shape                    Param #     
================================================================================
embedding_25 (Embedding)            (None, 26, 16)                  10480       
________________________________________________________________________________
flatten_25 (Flatten)                (None, 416)                     0           
________________________________________________________________________________
dense_117 (Dense)                   (None, 32)                      13344       
________________________________________________________________________________
dropout_60 (Dropout)                (None, 32)                      0           
________________________________________________________________________________
dense_118 (Dense)                   (None, 32)                      1056        
________________________________________________________________________________
dropout_61 (Dropout)                (None, 32)                      0           
________________________________________________________________________________
dense_119 (Dense)                   (None, 32)                      1056        
________________________________________________________________________________
dropout_62 (Dropout)                (None, 32)                      0           
________________________________________________________________________________
dense_120 (Dense)                   (None, 32)                      1056        
________________________________________________________________________________
dense_121 (Dense)                   (None, 1)                       33          
================================================================================
Total params: 27,025
Trainable params: 27,025
Non-trainable params: 0
________________________________________________________________________________


