Model
Model: "sequential_49"
________________________________________________________________________________
Layer (type)                        Output Shape                    Param #     
================================================================================
embedding_49 (Embedding)            (None, 26, 16)                  10480       
________________________________________________________________________________
flatten_49 (Flatten)                (None, 416)                     0           
________________________________________________________________________________
dense_237 (Dense)                   (None, 32)                      13344       
________________________________________________________________________________
dropout_132 (Dropout)               (None, 32)                      0           
________________________________________________________________________________
dense_238 (Dense)                   (None, 32)                      1056        
________________________________________________________________________________
dropout_133 (Dropout)               (None, 32)                      0           
________________________________________________________________________________
dense_239 (Dense)                   (None, 32)                      1056        
________________________________________________________________________________
dropout_134 (Dropout)               (None, 32)                      0           
________________________________________________________________________________
dense_240 (Dense)                   (None, 32)                      1056        
________________________________________________________________________________
dense_241 (Dense)                   (None, 1)                       33          
================================================================================
Total params: 27,025
Trainable params: 27,025
Non-trainable params: 0
________________________________________________________________________________


