Model
Model: "sequential_21"
________________________________________________________________________________
Layer (type)                        Output Shape                    Param #     
================================================================================
embedding_21 (Embedding)            (None, 26, 16)                  10480       
________________________________________________________________________________
flatten_21 (Flatten)                (None, 416)                     0           
________________________________________________________________________________
dense_97 (Dense)                    (None, 32)                      13344       
________________________________________________________________________________
dropout_48 (Dropout)                (None, 32)                      0           
________________________________________________________________________________
dense_98 (Dense)                    (None, 32)                      1056        
________________________________________________________________________________
dropout_49 (Dropout)                (None, 32)                      0           
________________________________________________________________________________
dense_99 (Dense)                    (None, 32)                      1056        
________________________________________________________________________________
dropout_50 (Dropout)                (None, 32)                      0           
________________________________________________________________________________
dense_100 (Dense)                   (None, 32)                      1056        
________________________________________________________________________________
dense_101 (Dense)                   (None, 1)                       33          
================================================================================
Total params: 27,025
Trainable params: 27,025
Non-trainable params: 0
________________________________________________________________________________


