Model
Model: "sequential_20"
________________________________________________________________________________
Layer (type)                        Output Shape                    Param #     
================================================================================
embedding_20 (Embedding)            (None, 26, 16)                  10480       
________________________________________________________________________________
flatten_20 (Flatten)                (None, 416)                     0           
________________________________________________________________________________
dense_92 (Dense)                    (None, 32)                      13344       
________________________________________________________________________________
dropout_45 (Dropout)                (None, 32)                      0           
________________________________________________________________________________
dense_93 (Dense)                    (None, 32)                      1056        
________________________________________________________________________________
dropout_46 (Dropout)                (None, 32)                      0           
________________________________________________________________________________
dense_94 (Dense)                    (None, 32)                      1056        
________________________________________________________________________________
dropout_47 (Dropout)                (None, 32)                      0           
________________________________________________________________________________
dense_95 (Dense)                    (None, 32)                      1056        
________________________________________________________________________________
dense_96 (Dense)                    (None, 1)                       33          
================================================================================
Total params: 27,025
Trainable params: 27,025
Non-trainable params: 0
________________________________________________________________________________


