Model
Model: "sequential_54"
________________________________________________________________________________
Layer (type)                        Output Shape                    Param #     
================================================================================
embedding_54 (Embedding)            (None, 26, 16)                  10480       
________________________________________________________________________________
flatten_54 (Flatten)                (None, 416)                     0           
________________________________________________________________________________
dense_262 (Dense)                   (None, 32)                      13344       
________________________________________________________________________________
dropout_147 (Dropout)               (None, 32)                      0           
________________________________________________________________________________
dense_263 (Dense)                   (None, 32)                      1056        
________________________________________________________________________________
dropout_148 (Dropout)               (None, 32)                      0           
________________________________________________________________________________
dense_264 (Dense)                   (None, 32)                      1056        
________________________________________________________________________________
dropout_149 (Dropout)               (None, 32)                      0           
________________________________________________________________________________
dense_265 (Dense)                   (None, 32)                      1056        
________________________________________________________________________________
dense_266 (Dense)                   (None, 1)                       33          
================================================================================
Total params: 27,025
Trainable params: 27,025
Non-trainable params: 0
________________________________________________________________________________


