Model
Model: "sequential_41"
________________________________________________________________________________
Layer (type)                        Output Shape                    Param #     
================================================================================
embedding_41 (Embedding)            (None, 26, 16)                  10480       
________________________________________________________________________________
flatten_41 (Flatten)                (None, 416)                     0           
________________________________________________________________________________
dense_197 (Dense)                   (None, 32)                      13344       
________________________________________________________________________________
dropout_108 (Dropout)               (None, 32)                      0           
________________________________________________________________________________
dense_198 (Dense)                   (None, 32)                      1056        
________________________________________________________________________________
dropout_109 (Dropout)               (None, 32)                      0           
________________________________________________________________________________
dense_199 (Dense)                   (None, 32)                      1056        
________________________________________________________________________________
dropout_110 (Dropout)               (None, 32)                      0           
________________________________________________________________________________
dense_200 (Dense)                   (None, 32)                      1056        
________________________________________________________________________________
dense_201 (Dense)                   (None, 1)                       33          
================================================================================
Total params: 27,025
Trainable params: 27,025
Non-trainable params: 0
________________________________________________________________________________


