Model
Model: "sequential_61"
________________________________________________________________________________
Layer (type)                        Output Shape                    Param #     
================================================================================
embedding_61 (Embedding)            (None, 26, 16)                  10480       
________________________________________________________________________________
flatten_61 (Flatten)                (None, 416)                     0           
________________________________________________________________________________
dense_297 (Dense)                   (None, 32)                      13344       
________________________________________________________________________________
dropout_168 (Dropout)               (None, 32)                      0           
________________________________________________________________________________
dense_298 (Dense)                   (None, 32)                      1056        
________________________________________________________________________________
dropout_169 (Dropout)               (None, 32)                      0           
________________________________________________________________________________
dense_299 (Dense)                   (None, 32)                      1056        
________________________________________________________________________________
dropout_170 (Dropout)               (None, 32)                      0           
________________________________________________________________________________
dense_300 (Dense)                   (None, 32)                      1056        
________________________________________________________________________________
dense_301 (Dense)                   (None, 1)                       33          
================================================================================
Total params: 27,025
Trainable params: 27,025
Non-trainable params: 0
________________________________________________________________________________


