Model
Model: "sequential_30"
________________________________________________________________________________
Layer (type)                        Output Shape                    Param #     
================================================================================
embedding_30 (Embedding)            (None, 26, 16)                  10480       
________________________________________________________________________________
flatten_30 (Flatten)                (None, 416)                     0           
________________________________________________________________________________
dense_142 (Dense)                   (None, 32)                      13344       
________________________________________________________________________________
dropout_75 (Dropout)                (None, 32)                      0           
________________________________________________________________________________
dense_143 (Dense)                   (None, 32)                      1056        
________________________________________________________________________________
dropout_76 (Dropout)                (None, 32)                      0           
________________________________________________________________________________
dense_144 (Dense)                   (None, 32)                      1056        
________________________________________________________________________________
dropout_77 (Dropout)                (None, 32)                      0           
________________________________________________________________________________
dense_145 (Dense)                   (None, 32)                      1056        
________________________________________________________________________________
dense_146 (Dense)                   (None, 1)                       33          
================================================================================
Total params: 27,025
Trainable params: 27,025
Non-trainable params: 0
________________________________________________________________________________


