Model
Model: "sequential_36"
________________________________________________________________________________
Layer (type)                        Output Shape                    Param #     
================================================================================
embedding_36 (Embedding)            (None, 26, 16)                  10480       
________________________________________________________________________________
flatten_36 (Flatten)                (None, 416)                     0           
________________________________________________________________________________
dense_172 (Dense)                   (None, 32)                      13344       
________________________________________________________________________________
dropout_93 (Dropout)                (None, 32)                      0           
________________________________________________________________________________
dense_173 (Dense)                   (None, 32)                      1056        
________________________________________________________________________________
dropout_94 (Dropout)                (None, 32)                      0           
________________________________________________________________________________
dense_174 (Dense)                   (None, 32)                      1056        
________________________________________________________________________________
dropout_95 (Dropout)                (None, 32)                      0           
________________________________________________________________________________
dense_175 (Dense)                   (None, 32)                      1056        
________________________________________________________________________________
dense_176 (Dense)                   (None, 1)                       33          
================================================================================
Total params: 27,025
Trainable params: 27,025
Non-trainable params: 0
________________________________________________________________________________


