Model
Model: "sequential_57"
________________________________________________________________________________
Layer (type)                        Output Shape                    Param #     
================================================================================
embedding_57 (Embedding)            (None, 26, 16)                  10480       
________________________________________________________________________________
flatten_57 (Flatten)                (None, 416)                     0           
________________________________________________________________________________
dense_277 (Dense)                   (None, 32)                      13344       
________________________________________________________________________________
dropout_156 (Dropout)               (None, 32)                      0           
________________________________________________________________________________
dense_278 (Dense)                   (None, 32)                      1056        
________________________________________________________________________________
dropout_157 (Dropout)               (None, 32)                      0           
________________________________________________________________________________
dense_279 (Dense)                   (None, 32)                      1056        
________________________________________________________________________________
dropout_158 (Dropout)               (None, 32)                      0           
________________________________________________________________________________
dense_280 (Dense)                   (None, 32)                      1056        
________________________________________________________________________________
dense_281 (Dense)                   (None, 1)                       33          
================================================================================
Total params: 27,025
Trainable params: 27,025
Non-trainable params: 0
________________________________________________________________________________


